…
59776/60000 [============================>.] - ETA: 1s - loss: 0.2624 - accuracy: 0.9201
59904/60000 [============================>.] - ETA: 0s - loss: 0.2621 - accuracy: 0.9202
60000/60000 [==============================] - 308s 5ms/step - loss: 0.2618 - accuracy: 0.9203 - val_loss: 0.0607 - val_accuracy: 0.9806
Test loss: 0.060733483476750554
Test accuracy: 0.9805999994277954
Model: "sequential_1"
_________________________________________________________________
Layer (type)                 Output Shape              Param #   
=================================================================
conv2d_1 (Conv2D)            (None, 26, 26, 32)        320       
_________________________________________________________________
conv2d_2 (Conv2D)            (None, 24, 24, 64)        18496     
_________________________________________________________________
max_pooling2d_1 (MaxPooling2 (None, 12, 12, 64)        0         
_________________________________________________________________
dropout_1 (Dropout)          (None, 12, 12, 64)        0         
_________________________________________________________________
flatten_1 (Flatten)          (None, 9216)              0         
_________________________________________________________________
dense_1 (Dense)              (None, 128)               1179776   
_________________________________________________________________
dropout_2 (Dropout)          (None, 128)               0         
_________________________________________________________________
dense_2 (Dense)              (None, 10)                1290      
=================================================================
Total params: 1,199,882
Trainable params: 1,199,882
Non-trainable params: 0
_________________________________________________________________
